…
&lt;span class=&quot;n&quot;&gt;model_1&lt;/span&gt;&lt;span class=&quot;p&quot;&gt;.&lt;/span&gt;&lt;span class=&quot;n&quot;&gt;summary&lt;/span&gt;&lt;span class=&quot;p&quot;&gt;()&lt;/span&gt;
&lt;/code&gt;&lt;/pre&gt;&lt;/div&gt;&lt;/div&gt;

&lt;div class=&quot;language-plaintext highlighter-rouge&quot;&gt;&lt;div class=&quot;highlight&quot;&gt;&lt;pre class=&quot;highlight&quot;&gt;&lt;code&gt;Model: &quot;sequential&quot;
_________________________________________________________________
Layer (type)                 Output Shape              Param ##
=================================================================
conv2d (Conv2D)              (None, 30, 30, 32)        896
_________________________________________________________________
max_pooling2d (MaxPooling2D) (None, 15, 15, 32)        0
_________________________________________________________________
conv2d_1 (Conv2D)            (None, 13, 13, 64)        18496
_________________________________________________________________
max_pooling2d_1 (MaxPooling2 (None, 6, 6, 64)          0
_________________________________________________________________
conv2d_2 (Conv2D)            (None, 4, 4, 64)          36928
_________________________________________________________________
flatten (Flatten)            (None, 1024)              0
_________________________________________________________________
dense (Dense)                (None, 64)                65600
_________________________________________________________________
dense_1 (Dense)              (None, 10)                650
=================================================================
Total params: 122,570
Trainable params: 122,570
Non-trainable params: 0
_________________________________________________________________
&lt;/code&gt;&lt;/pre&gt;&lt;/div&gt;&lt;/div&gt;

&lt;p&gt;The model is trained for 15 epochs and the maximum validation accuracy achieved is 69.17%&lt;/p&gt;

&lt;div class=&quot;language-python highlighter-rouge&quot;&gt;&lt;div class=&quot;highlight&quot;&gt;&lt;pre class=&quot;highlight&quot;&gt;&lt;code&gt;&lt;span class=&quot;n&quot;&gt;epochs&lt;/span&gt; &lt;span class=&quot;o&quot;&gt;=&lt;/span&gt; &lt;span class=&quot;mi&quot;&gt;15&lt;/span&gt;
…
&lt;div class=&quot;language-python highlighter-rouge&quot;&gt;&lt;div class=&quot;highlight&quot;&gt;&lt;pre class=&quot;highlight&quot;&gt;&lt;code&gt;&lt;span class=&quot;n&quot;&gt;model_8&lt;/span&gt;&lt;span class=&quot;p&quot;&gt;.&lt;/span&gt;&lt;span class=&quot;n&quot;&gt;summary&lt;/span&gt;&lt;span class=&quot;p&quot;&gt;()&lt;/span&gt;
&lt;/code&gt;&lt;/pre&gt;&lt;/div&gt;&lt;/div&gt;

&lt;div class=&quot;language-plaintext highlighter-rouge&quot;&gt;&lt;div class=&quot;highlight&quot;&gt;&lt;pre class=&quot;highlight&quot;&gt;&lt;code&gt;Model: &quot;sequential_7&quot;
_________________________________________________________________
Layer (type)                 Output Shape              Param ##
=================================================================
conv2d_21 (Conv2D)           (None, 30, 30, 32)        896
_________________________________________________________________
max_pooling2d_14 (MaxPooling (None, 15, 15, 32)        0
_________________________________________________________________
conv2d_22 (Conv2D)           (None, 13, 13, 64)        18496
_________________________________________________________________
flatten_7 (Flatten)          (None, 10816)             0
_________________________________________________________________
dense_14 (Dense)             (None, 64)                692288
_________________________________________________________________
dense_15 (Dense)             (None, 10)                650
=================================================================
Total params: 712,330
Trainable params: 712,330
Non-trainable params: 0
_________________________________________________________________
&lt;/code&gt;&lt;/pre&gt;&lt;/div&gt;&lt;/div&gt;

&lt;div class=&quot;language-python highlighter-rouge&quot;&gt;&lt;div class=&quot;highlight&quot;&gt;&lt;pre class=&quot;highlight&quot;&gt;&lt
…
&lt;span class=&quot;n&quot;&gt;model_9&lt;/span&gt;&lt;span class=&quot;p&quot;&gt;.&lt;/span&gt;&lt;span class=&quot;n&quot;&gt;summary&lt;/span&gt;&lt;span class=&quot;p&quot;&gt;()&lt;/span&gt;
&lt;/code&gt;&lt;/pre&gt;&lt;/div&gt;&lt;/div&gt;

&lt;div class=&quot;language-plaintext highlighter-rouge&quot;&gt;&lt;div class=&quot;highlight&quot;&gt;&lt;pre class=&quot;highlight&quot;&gt;&lt;code&gt;Model: &quot;sequential_8&quot;
_________________________________________________________________
Layer (type)                 Output Shape              Param ##
=================================================================
conv2d_23 (Conv2D)           (None, 30, 30, 32)        896
_________________________________________________________________
max_pooling2d_15 (MaxPooling (None, 15, 15, 32)        0
_________________________________________________________________
conv2d_24 (Conv2D)           (None, 13, 13, 32)        9248
_________________________________________________________________
max_pooling2d_16 (MaxPooling (None, 6, 6, 32)          0
_________________________________________________________________
conv2d_25 (Conv2D)           (None, 4, 4, 32)          9248
_________________________________________________________________
flatten_8 (Flatten)          (None, 512)               0
_________________________________________________________________
dense_16 (Dense)             (None, 32)                16416
_________________________________________________________________
dense_17 (Dense)             (None, 10)                330
=================================================================
Total params: 36,138
Trainable params: 36,138
Non-trainable params: 0
_________________________________________________________________
&lt;/code&gt;&lt;/pre&gt;&lt;/div&gt;&lt;/div&gt;

&lt;div class=&quot;language-python highlighter-rouge&quot;&gt;&lt;div class=&quot;highlight&quot;&gt;&lt;pre class=&quot;highlight&quot;&gt;&lt;c
…
&lt;span class=&quot;n&quot;&gt;model_9&lt;/span&gt;&lt;span class=&quot;p&quot;&gt;.&lt;/span&gt;&lt;span class=&quot;n&quot;&gt;summary&lt;/span&gt;&lt;span class=&quot;p&quot;&gt;()&lt;/span&gt;
&lt;/code&gt;&lt;/pre&gt;&lt;/div&gt;&lt;/div&gt;

&lt;div class=&quot;language-plaintext highlighter-rouge&quot;&gt;&lt;div class=&quot;highlight&quot;&gt;&lt;pre class=&quot;highlight&quot;&gt;&lt;code&gt;Model: &quot;sequential_9&quot;
_________________________________________________________________
Layer (type)                 Output Shape              Param ##
=================================================================
conv2d_26 (Conv2D)           (None, 30, 30, 32)        896
_________________________________________________________________
dense_18 (Dense)             (None, 30, 30, 32)        1056
_________________________________________________________________
max_pooling2d_17 (MaxPooling (None, 15, 15, 32)        0
_________________________________________________________________
conv2d_27 (Conv2D)           (None, 13, 13, 64)        18496
_________________________________________________________________
max_pooling2d_18 (MaxPooling (None, 6, 6, 64)          0
_________________________________________________________________
conv2d_28 (Conv2D)           (None, 4, 4, 64)          36928
_________________________________________________________________
flatten_9 (Flatten)          (None, 1024)              0
_________________________________________________________________
dense_19 (Dense)             (None, 64)                65600
_________________________________________________________________
dense_20 (Dense)             (None, 10)                650
=================================================================
Total params: 123,626
Trainable params: 123,626
Non-trainable params: 0
_________________________________________________________________
&lt;/code&gt;&lt;/pre&gt;&lt;/div&gt;&lt;/div&gt;

&lt;div class=&quot;language-python highlighter-rouge&quot;&gt;&lt;div class=&quot;highlight&quot;&gt;&lt;pre class=&quot;highlight&quot;&gt;&lt
…
