…
&lt;span class=&quot;n&quot;&gt;model_obj_1&lt;/span&gt;&lt;span class=&quot;p&quot;&gt;.&lt;/span&gt;&lt;span class=&quot;n&quot;&gt;test_results&lt;/span&gt;&lt;span class=&quot;p&quot;&gt;(&lt;/span&gt;&lt;span class=&quot;n&quot;&gt;test_df&lt;/span&gt;&lt;span class=&quot;p&quot;&gt;)&lt;/span&gt;
&lt;/code&gt;&lt;/pre&gt;&lt;/div&gt;&lt;/div&gt;

&lt;div class=&quot;language-plaintext highlighter-rouge&quot;&gt;&lt;div class=&quot;highlight&quot;&gt;&lt;pre class=&quot;highlight&quot;&gt;&lt;code&gt;Model updated, and the model instance can be retried via object_name.model
====== Model Summary =====
Model: &quot;sequential&quot;
_________________________________________________________________
Layer (type)                 Output Shape              Param #
=================================================================
conv2d (Conv2D)              (None, 30, 30, 32)        896
_________________________________________________________________
max_pooling2d (MaxPooling2D) (None, 15, 15, 32)        0
_________________________________________________________________
conv2d_1 (Conv2D)            (None, 13, 13, 64)        18496
_________________________________________________________________
max_pooling2d_1 (MaxPooling2 (None, 6, 6, 64)          0
_________________________________________________________________
conv2d_2 (Conv2D)            (None, 4, 4, 64)          36928
_________________________________________________________________
flatten (Flatten)            (None, 1024)              0
_________________________________________________________________
dense (Dense)                (None, 64)                65600
_________________________________________________________________
dense_1 (Dense)              (None, 10)                650
=================================================================
Total params: 122,570
Trainable params: 122,570
Non-trainable params: 0
_________________________________________________________________
Activation function:  relu

Optimizer:  adam

Loss funcion:  SparseCategoricalCrossentropy()

Training for 10 epochs
Epoch 1/10
62/62 [==============================] - 9s 141ms/step - loss: 1.7236 - accuracy: 0.3253 - val_loss: 1.4677 - val_accuracy: 0.3573
…
&lt;span class=&quot;n&quot;&gt;model_obj_10&lt;/span&gt;&lt;span class=&quot;p&quot;&gt;.&lt;/span&gt;&lt;span class=&quot;n&quot;&gt;test_results&lt;/span&gt;&lt;span class=&quot;p&quot;&gt;(&lt;/span&gt;&lt;span class=&quot;n&quot;&gt;test_df&lt;/span&gt;&lt;span class=&quot;p&quot;&gt;)&lt;/span&gt;
&lt;/code&gt;&lt;/pre&gt;&lt;/div&gt;&lt;/div&gt;

&lt;div class=&quot;language-plaintext highlighter-rouge&quot;&gt;&lt;div class=&quot;highlight&quot;&gt;&lt;pre class=&quot;highlight&quot;&gt;&lt;code&gt;====== Model Summary =====
Model: &quot;sequential_9&quot;
_________________________________________________________________
Layer (type)                 Output Shape              Param #
=================================================================
conv2d_27 (Conv2D)           (None, 30, 30, 32)        896
_________________________________________________________________
dense_18 (Dense)             (None, 30, 30, 32)        1056
_________________________________________________________________
max_pooling2d_18 (MaxPooling (None, 15, 15, 32)        0
_________________________________________________________________
conv2d_28 (Conv2D)           (None, 13, 13, 64)        18496
_________________________________________________________________
max_pooling2d_19 (MaxPooling (None, 6, 6, 64)          0
_________________________________________________________________
conv2d_29 (Conv2D)           (None, 4, 4, 64)          36928
_________________________________________________________________
flatten_9 (Flatten)          (None, 1024)              0
_________________________________________________________________
dense_19 (Dense)             (None, 64)                65600
_________________________________________________________________
dense_20 (Dense)             (None, 10)                650
=================================================================
Total params: 123,626
Trainable params: 123,626
Non-trainable params: 0
_________________________________________________________________
Training for 10 epochs
Epoch 1/10
62/62 [==============================] - 9s 140ms/step - loss: 1.8687 - accuracy: 0.2508 - val_loss: 1.5404 - val_accuracy: 0.3438
Epoch 2/10
62/62 [==============================] - 9s 147ms/step - loss: 1.5618 - accuracy: 0.3111 - val_loss: 1.4401 - val_accuracy: 0.3938
…
